repair/repair.pt (torch, 375700 bytes, 18 tensors)

embedding.weight f4 [64, 2]
0	0xbec7c7d1	-0.39019635
1	0xbed88da0	-0.4229555
2	0xbdc86bef	-0.09786212
3	0x3db8a3b3	0.09015598
4	0xbf164355	-0.5869649
5	0xbd79d8b9	-0.0609977
6	0xbe6f422f	-0.23365091
7	0xbeb676d2	-0.35637528
8	0x3f008a6e	0.50211227
9	0xbf100474	-0.56256795
10	0x3dc447d9	0.09584016
11	0x3e2ea032	0.17053297
12	0xbeb0a2a1	-0.34499076
13	0xbefeaee7	-0.49742815
14	0x3f27cd14	0.655473
15	0xbf2d23c4	-0.676327
16	0x3efdd783	0.49578485
17	0xbf2a132a	-0.6643549
18	0x3f1cb8ee	0.6121968
19	0xbf0e1ed9	-0.5551582
20	0xbd66f149	-0.05638245
21	0xbe604af8	-0.21903598
22	0xbb2b11f3	-0.0026103228
23	0xbf315d8f	-0.69283384
24	0x3e4a6a4f	0.19767116
25	0xbedd02eb	-0.4316629
26	0xbc62079c	-0.0137957595
27	0xbf26684b	-0.6500289
28	0x3d8c8209	0.0686074
29	0x3f281cab	0.65668744
30	0x3e8f3c91	0.27975896
31	0x3e92a236	0.28639382
32	0xbf245366	-0.64189756
33	0x3e6c76dc	0.23092216
34	0xbeb3439b	-0.35012516
35	0xbdbd7f97	-0.092528515
36	0xbf14d4a0	-0.5813694
37	0xbf10bc8f	-0.5653772
38	0x3e3997b8	0.18124282
39	0x3ea9a524	0.33133805
40	0xbf24b126	-0.6433281
41	0x3f26c1e1	0.65139586
42	0x3ed83bb3	0.42233047
43	0xbe241b4a	-0.16026035
44	0x3f256718	0.64610434
45	0xbf20a333	-0.6274902
46	0x3e6ea06a	0.2330338
47	0x3ec329f2	0.3811794
48	0x3f0f2c4a	0.55926955
49	0x3e7ba6d1	0.24575354
50	0xbe5282dc	-0.20557731
51	0xbf3382c4	-0.7012141
52	0xbeedf608	-0.4647677
53	0xbe647bce	-0.22312853
54	0x3d19058a	0.037358798
55	0xbe046bea	-0.12931791
56	0xbed82266	-0.42213744
57	0x3e36e47a	0.17860594
58	0x3f1b460a	0.60653746
59	0xbf0c38f4	-0.54774404
60	0xbeeccfb3	-0.46252212
61	0xbd5d7241	-0.05406404
62	0x3ee43847	0.44574186
63	0x3f1dd6b2	0.61655724
64	0x3eaaaeab	0.33336386
65	0xbe26470e	-0.16238043
66	0x3eca7257	0.3954036
67	0x3d9c7b52	0.07640709
68	0x3eae6b73	0.34066352
69	0xbe7a2eaf	-0.24431871
70	0x3ede817e	0.4345817
71	0x3daac409	0.08338172
72	0xbecd7c9f	-0.4013414
73	0x3f0688d4	0.52552533
74	0xbe93232b	-0.2873777
75	0xbe1cb959	-0.1530508
76	0x3f04e2e4	0.5190871
77	0x3f2fc85d	0.68665105
78	0xbee1353e	-0.43985933
79	0x3e2a9ed3	0.16662149
80	0x3ce5c672	0.028048728
81	0x3f06e68f	0.52695554
82	0x3f033501	0.5125275
83	0x3ecadee7	0.39623186
84	0xbbf7faa2	-0.0075677196
85	0xbf3149ff	-0.69253534
86	0x3ebedb1c	0.37276542
87	0xbedd7904	-0.4325639
88	0x3e88d9ba	0.26728612
89	0x3e1ecf1b	0.15508692
90	0x3f294363	0.6611845
91	0x3e02d05b	0.12774794
92	0xbef83111	-0.48474935
93	0xbe06e5bf	-0.13173579
94	0x3dfbe0a0	0.12298703
95	0xbf1e99ea	-0.61953604
96	0x3f11d369	0.5696321
97	0xbdbbd540	-0.091715336
98	0x3eb51f7a	0.35375577
99	0xbf1eecb5	-0.62079936
100	0x3f053619	0.5203567
101	0xbf2596a2	-0.6468297
102	0xbcde6e9a	-0.027152348
103	0xbeee46f1	-0.465385
104	0xbe2245cb	-0.15846936
105	0xbf1994f1	-0.5999289
106	0xbe0e0270	-0.13868117
107	0x3e2d2475	0.16908439
108	0x3f0d8377	0.55278724
109	0xbe8e2fef	-0.27770945
110	0x3d72a7dc	0.059242114
111	0x3dc2aaa2	0.09505202
112	0x3f34e22a	0.706576
113	0xbf2d23df	-0.6763286
114	0xbf0fd2ff	-0.5618133
115	0x3dabe253	0.08392777
116	0xbef210bd	-0.47278395
117	0x3e9b53cf	0.30337378
118	0xbee3d34b	-0.4449714
119	0xbe1f7bf8	-0.15574634
120	0x3e84e8c6	0.25958842
121	0xbe86730d	-0.26259652
122	0xbf02095f	-0.5079555
123	0x3f20f22e	0.62869537
124	0xbe306218	-0.1722492
125	0x3edc7a75	0.43062177
126	0xbe9e7ca9	-0.30954483
127	0xbcea3f9b	-0.028594783

embedding.bias f4 [64]
0	0x3f0b1c8c	0.54340434
1	0xbeee7035	-0.46569982
2	0xbd69fe8d	-0.057127524
3	0xbf1be8fc	-0.6090238
4	0x3e82d99d	0.2555665
5	0xbdd64c59	-0.10463781
6	0xbe98e339	-0.29860857
7	0xbe88cbcb	-0.26717982
8	0xbeca63cd	-0.39529267
9	0xbe75969c	-0.23983234
10	0x3e315770	0.17318511
11	0xbea4db04	-0.32198346
12	0xbe89f80d	-0.2694706
13	0x3d70303d	0.058639754
14	0x3f155dc1	0.5834618
15	0xbe4be9fb	-0.19913475
16	0x3e4f47ec	0.2024228
17	0x3cfd90c1	0.030952813
18	0xbe826820	-0.25470066
19	0x3f0eeccc	0.55830073
20	0xbece7a0b	-0.40327486
21	0x3df4e252	0.1195723
22	0x3f132a1a	0.57486117
23	0x3e95cbbf	0.29257008
24	0x3e406613	0.18788938
25	0x3c7ad18a	0.015308747
26	0x3eb129a7	0.3460209
27	0x3e4ac148	0.19800293
28	0x3e6ef43a	0.23335353
29	0xbe4d86b0	-0.2007091
30	0x3ce18964	0.027531333
31	0xbeb14710	-0.3462453
32	0xbf0f6f81	-0.56029516
33	0xbf001114	-0.5002606
34	0xbe665cb4	-0.22496301
35	0xbf2ab616	-0.6668409
36	0x3f329083	0.6975176
37	0x3f29f89b	0.66394967
38	0x3f242eb5	0.6413377
39	0xbefffd71	-0.49998048
40	0xbf054de5	-0.5207198
41	0x3f27fa25	0.65616065
42	0x3e0eecdd	0.13957544
43	0x3e92762f	0.28605792
44	0x3f0691f3	0.5256645
45	0x3d1b49b8	0.0379121
46	0x3ec596d4	0.38591635
47	0xbeb75bbc	-0.35812175
48	0xbe4f63b3	-0.20252876
49	0x3e4afb00	0.19822311
50	0xbdf18472	-0.1179284
51	0xbebd099a	-0.36921388
52	0x3ee76e03	0.4520112
53	0xbeff8207	-0.4990389
54	0xbe66e7a7	-0.22549306
55	0x3f2ade32	0.66745293
56	0xbecabb62	-0.39596087
57	0xbf27f306	-0.656052
58	0x3ea7f6e3	0.32805547
59	0x3f0d8d17	0.5529341
60	0xbf0b0322	-0.54301655
61	0x3dbe2185	0.09283737
62	0xbf16e4aa	-0.58942664
63	0xbe0ce2c1	-0.13758375

gnn.layers.0.node_embedding.0.weight f4 [64, 128]
0	0x3bd845ee	0.006600133
1	0x3cdcdac1	0.026959779
2	0x3d944c68	0.07241136
3	0xbd0ed905	-0.034874935
4	0xb92439bd	-0.00015661768
5	0xbd86f59b	-0.06589814
6	0xbd538e34	-0.051649287
7	0xbdaca1be	-0.084292874
8	0xbc32aa7f	-0.010904907
9	0xbd2b1b06	-0.04177382
10	0x3ccd8c9c	0.025091462
11	0xbd28dbe7	-0.04122534
12	0xbc317b0f	-0.010832562
13	0xbcf9ff21	-0.030517163
14	0xbda5f4c4	-0.08103326
15	0xbc90aa90	-0.017659456
16	0x3cea4be9	0.02860065
17	0xbd9145fd	-0.07093427
18	0xbd913c10	-0.07091534
19	0x3d457aa2	0.048212655
20	0xbd39be6f	-0.045347627
21	0xbdad9487	-0.08475595
22	0x3d774055	0.060364086
23	0x3d2932b8	0.041308135
24	0xbd8f4f58	-0.069975555
25	0xbd1aedc3	-0.037824403
26	0x3d98530f	0.07437717
27	0xbb86229b	-0.0040934808
28	0xba84d0e0	-0.001013305
29	0xbd8b608f	-0.068055265
30	0x3d843473	0.064553164
31	0xbd550db3	-0.052015018
32	0xbd992318	-0.07477397
33	0xbd664d80	-0.056226254
34	0xbad76320	-0.001643274
35	0x3ca0ca63	0.019627756
36	0xbd822ccf	-0.06356203
37	0x3ce518b2	0.027965877
38	0x3cedf315	0.029046575
39	0x3dab0916	0.083513424
40	0xbdae9063	-0.08523633
41	0x3d92642b	0.07148012
42	0xbd9f1bd0	-0.07768977
43	0x3d796ae4	0.060892954
44	0xbd7d96e3	-0.061911475
45	0xbcb2ab94	-0.02181033
46	0xbd644bbf	-0.0557363
47	0x3cbeafcd	0.023277188
48	0xbb980755	-0.004639546
49	0xbd5c9d91	-0.053861205
50	0xbca26839	-0.019825088
51	0x3c34b68c	0.011029851
52	0x3d94d61a	0.07267399
53	0x3d844441	0.06458331
54	0xbd284f87	-0.04109147
55	0xbc7ef42a	-0.015561143
56	0xbcc4a9ac	-0.024006687
57	0xbd3864ec	-0.04501812
58	0xbd74a90e	-0.059731536
59	0xbd40ab04	-0.047038093
60	0xbbd4eb53	-0.0064977794
61	0x3d1ee887	0.038795974
62	0x3d02f9f1	0.031976644
63	0x3cbc5915	0.022991696
64	0xbd8f2c40	-0.06990862
65	0xbd13d2b8	-0.03608963
66	0xbdb2c10a	-0.087282255
67	0xbd2687cf	-0.04065686
68	0xbc9a1988	-0.018811002
69	0xbd32cb03	-0.04365064
70	0x3d9a2686	0.07526879
71	0xbcf00027	-0.029296948
72	0xbcea0e43	-0.028571254
73	0xbd20ca82	-0.039255626
74	0xbbd58a3f	-0.0065167244
75	0x3d0bb7fb	0.034111004
76	0x3c7fcf5e	0.015613405
77	0x3cb83e9b	0.02249079
78	0x3cdef017	0.027214093
79	0x3c58b2d3	0.013226229
80	0x3db28eb6	0.08718626
81	0xbc1f073b	-0.009706314
82	0x3d966b40	0.07344675
83	0x3ce86353	0.028367674
84	0x3be81b11	0.0070833047
85	0xbcbfc239	-0.023408042
86	0xbd16913e	-0.036759607
87	0x3daa16ef	0.083051555
88	0xbdb372e9	-0.08762152
89	0x3c4952ac	0.012287777
90	0xbd954171	-0.072878726
91	0xbd08caa0	-0.033396363
92	0xbbefbf03	-0.0073164715
93	0xbcaad233	-0.020852184
94	0x3d8166d9	0.06318445
95	0x3bd024a6	0.006352025
96	0xbdaee414	-0.08539596
97	0xbd23e2d5	-0.040011246
98	0xbcd59e94	-0.026076593
99	0xbd9c655e	-0.07636522
100	0x3db11ab2	0.0864767
101	0x3da3c1fe	0.079959854
102	0x3c39316f	0.01130329
103	0x3d0ac90e	0.033883147
104	0xbd6b4802	-0.05744172
105	0x3cbc360e	0.022974994
106	0xbdae0572	-0.08497132
107	0xbb29d996	-0.0025917045
108	0x3d632e07	0.055463817
109	0xbd01e6fa	-0.031714417
110	0xbda24860	-0.07923961
111	0xbd0a0b3e	-0.033702128
112	0x3d3c6c4e	0.046001725
113	0x3d46fddc	0.048581943
114	0x3cae3972	0.021267626
115	0xbd598566	-0.053105734
116	0xbd67bb96	-0.05657538
117	0xbad84895	-0.0016501123
118	0xbca3126a	-0.019906241
119	0xbc38873d	-0.011262712
120	0xbc544812	-0.012956636
121	0x3d88223a	0.06647153
122	0xbda57e91	-0.08080781
123	0x3d9f8b33	0.07790222
124	0xbc26c45e	-0.0101786535
125	0x3d9db5e1	0.07700706
126	0x3d2eeb37	0.042704787
127	0x3d900408	0.07032019
128	0xbcdb3ef4	-0.026763417
129	0x3d300349	0.042971883
130	0xbd2de4c2	-0.04245449
131	0x3d20375a	0.039115287
132	0x3d4ab0d2	0.049485035
133	0x3b002f3c	0.0019559404
134	0x3daa1783	0.08305266
135	0x3ca4fcb4	0.02014003
136	0x3db021a5	0.08600167
137	0xbce381ef	-0.027771918
138	0x3c4cb962	0.012495371
139	0xbd211420	-0.039325833
140	0x3db18877	0.08668607
141	0xbcf3706a	-0.02971669
142	0x3d9a8ea7	0.0754674
143	0xbb24f35b	-0.0025169465
144	0x3d209623	0.03920568
145	0x3da90eec	0.08254799
146	0x3d608c41	0.054821257
147	0x3d12fa14	0.035883024
148	0xbca7d895	-0.020489017
149	0xbd578e6d	-0.052626062
150	0x3c0011b6	0.007816723
151	0x3b2f95b7	0.0026792118
152	0x3d124e82	0.035719402
153	0x3d5670d2	0.052353688
154	0x3d50ad5a	0.05094657
155	0x3c90ba13	0.017666852
156	0x3da814da	0.08207102
157	0x3ab75a74	0.0013988749
158	0xbcbbdc30	-0.022932142
159	0x3d9b9d12	0.07598318
160	0x3da1ab5b	0.078940116
161	0xbd8b2770	-0.067946315
162	0xbd2dd649	-0.042440686
163	0xbc5bc09e	-0.013412623
164	0x3da77f35	0.0817856
165	0xbc9c807e	-0.019104239
166	0x3cef51fc	0.029213898
167	0x3daa6561	0.08320118
168	0x3d810476	0.06299679
169	0xbd6ef9ce	-0.0583437
170	0x3dac2108	0.08404738
171	0xbd186d3f	-0.03721356
172	0x3d7f9686	0.06239941
173	0x3bfc59ce	0.0077011352
174	0x3cc544d0	0.024080664
175	0xbccb7423	-0.024835652
176	0xbda2f568	-0.07956964
177	0xbd1756ae	-0.0369479
178	0x3d1d5015	0.03840645
179	0xbbac53f3	-0.005259031
180	0x3cc99118	0.024605319
181	0xbd8f7242	-0.07004215
182	0x3d176261	0.036959056
183	0x3daaa4eb	0.08332237
184	0xbd8aa850	-0.06770384
185	0x3d0ab3a2	0.033862717
186	0x3c8771e3	0.016533798
187	0x3dac17f3	0.084030055
188	0x3d9874b4	0.07444134
189	0xbc978cea	-0.01849981
190	0xbc16cb86	-0.009203797
191	0x3da74ed9	0.08169336
192	0x3d4ecf70	0.050490797
193	0x3daaf3dc	0.08347294
194	0xbbddacf1	-0.006765001
195	0x3cbc3dbf	0.022978662
196	0xbd752874	-0.059853032
197	0x3d66d6bf	0.05635714
198	0x3d477324	0.04869379
199	0x3cf1d7a4	0.02952177
200	0x3d0ae658	0.03391108
201	0x3d2f4e00	0.042798996
202	0x3da19990	0.07890618
203	0x3c84b694	0.016200341
204	0x3cb615d9	0.022227215
205	0xbc49b742	-0.0123117585
206	0xbcafaa33	-0.021443462
207	0xbc8e141d	-0.017343575
208	0xbcffb2ff	-0.031213282
209	0xbda6d893	-0.08146777
210	0xbd8306e7	-0.06397801
211	0x3d8aef54	0.067839295
212	0x3cf3c7a7	0.029758288
213	0x3da51989	0.08061511
214	0x3cf98dcb	0.03046312
215	0x3b3cc051	0.0028801153
216	0xbd334508	-0.043767005
217	0x3d949286	0.0725451
218	0x3d338802	0.04383088
219	0x3b197f29	0.002342174
220	0xbd05a7fe	-0.032630913
221	0xbc1c7d39	-0.00955134
222	0xbd9dc09d	-0.07702754
223	0xbd137b12	-0.03600604
224	0xbd40b920	-0.04705155
225	0xbd942338	-0.0723328
226	0x3d38de3c	0.045133814
227	0x3cc05548	0.023478165
228	0x3c7411b9	0.014896804
229	0xbd90704f	-0.07052671
230	0xbd85d9d0	-0.06535685
231	0xbd8ca7e7	-0.06867962
232	0xbd3eabab	-0.046550434
233	0x3daa0da3	0.08303382
234	0xbdb1d567	-0.086832814
235	0xbda6cfd6	-0.0814511
236	0x3bcdbad1	0.0062783738
237	0x3d45263b	0.048132163
238	0x3cd951e7	0.026528312
239	0x3d985d78	0.07439703
240	0xbcf6d1a6	-0.030129265
241	0xbc9124ea	-0.017717797
242	0x3bd31fe2	0.0064430097
243	0xbd877b57	-0.06615322
244	0x3d9a9f3f	0.07549905
245	0xbd3a6e7e	-0.04551553
246	0xbd79ce24	-0.060987607
247	0xbb26c90d	-0.0025449425
248	0xbd8f28eb	-0.06990226
249	0x3da9f827	0.082992844
250	0xbd95f9d3	-0.07323041
251	0x3c68441f	0.014176398
252	0xbb5fff2d	-0.0034179196
253	0xbd6d0467	-0.057865527
254	0xbabb9e3a	-0.0014314123
255	0x3d1cbbb9	0.038264964

gnn.layers.0.edge_embedding.0.weight f4 [64, 131]
0	0x3d81e3e0	0.06342292
1	0xbd5ba046	-0.053619646
2	0xbd289a96	-0.04116305
3	0xbc6f89cb	-0.014620255
4	0x3d88989f	0.06669735
5	0xbc100980	-0.0087913275
6	0x3d0616ed	0.032736707
7	0xbda5db44	-0.08098462
8	0x3d997a37	0.07494014
9	0x3aee16a4	0.0018164706
10	0x3d859019	0.06521625
11	0xbd480a72	-0.048838086
12	0x3bac73a7	0.0052628103
13	0xbdaffebc	-0.085935086
14	0x3bea0423	0.0071416064
15	0x3d81c991	0.06337274
16	0x3d9dd2fc	0.07706258
17	0x3d9f5dca	0.07781561
18	0x3a655086	0.00087476557
19	0x3daff14f	0.08590948
20	0xbd93009b	-0.0717785
21	0xbd206e72	-0.03916783
22	0xbd20660c	-0.03915982
23	0xbd1bf7df	-0.038078185
24	0xbd148d47	-0.036267545
25	0xbdb29b31	-0.08721007
26	0x3d804c99	0.0626461
27	0xbd44fc70	-0.048092306
28	0x3d30319b	0.043016057
29	0x3b5078fd	0.0031810396
30	0x3a48651b	0.00076444604
31	0xbd764e91	-0.06013352
32	0x3d828c0f	0.0637437
33	0x3cdcb4c8	0.026941672
34	0x3da98d47	0.082789
35	0x3c7f6937	0.01558905
36	0x3dad8662	0.08472897
37	0x3c969581	0.018381836
38	0xbd63600b	-0.055511516
39	0x3b458d4f	0.003014404
40	0x3d48aed8	0.04899487
41	0xbd8e45ed	-0.06946931
42	0x3b1e35f3	0.0024141043
43	0xbc91f219	-0.017815636
44	0xbd3d3523	-0.046193253
45	0x3d7a02b3	0.06103773
46	0xbcc3cb92	-0.02390078
47	0xbd812037	-0.063049726
48	0xbcd12de9	-0.025534587
49	0x3baa8d00	0.005204797
50	0x3bba3614	0.005682716
51	0xbd4fb952	-0.050713845
52	0xbb744897	-0.0037274712
53	0x3da44542	0.080210224
54	0xbccf500a	-0.02530672
55	0xbc4135df	-0.011792629
56	0xbc8d2866	-0.017231178
57	0xbca267b0	-0.019824833
58	0x3d82df7a	0.06390281
59	0xbd75f234	-0.060045436
60	0x3d83f1c8	0.064426005
61	0xbc3eef5f	-0.01165375
62	0x3daa767b	0.083233796
63	0x3d104f8a	0.035232104
64	0x3cbc1357	0.02295844
65	0x3d172b12	0.03690631
66	0x3d66389a	0.056206323
67	0x3d222166	0.039582632
68	0xbd91217c	-0.07086465
69	0xbd053649	-0.032522473
70	0xbd73f157	-0.05955633
71	0x3d1ecc88	0.038769275
72	0x3d408c0b	0.047008555
73	0xbd9f89f0	-0.07789981
74	0x3da2706a	0.079315975
75	0xbdb0b3eb	-0.08628067
76	0x3d99cbaa	0.07509549
77	0xbd226c0b	-0.03965382
78	0x3cee097e	0.02905726
79	0xbc3110db	-0.010807241
80	0x3c5ec1ca	0.013596008
81	0x3d8459ea	0.06462462
82	0xbd9adc71	-0.07561577
83	0x3d8a506e	0.06753622
84	0x3d7e5d56	0.06210073
85	0x3d01f69b	0.031729322
86	0x3caeb505	0.021326551
87	0x3d47fd92	0.048825808
88	0xbcbcfb76	-0.023069125
89	0x3c4a9042	0.012363495
90	0xbd0ae970	-0.03391403
91	0xbc61b22e	-0.0137753915
92	0xbd13b65f	-0.036062595
93	0xbd15030e	-0.036379866
94	0xbbf1d183	-0.007379712
95	0xbd6788af	-0.056526836
96	0x3d5f2fd2	0.054488964
97	0x3c56f512	0.013119953
98	0xbc307ca2	-0.010771902
99	0x3cf4d057	0.0298845
100	0xbda4cb1f	-0.08046555
101	0xbd99da83	-0.07512381
102	0xbd9fd06e	-0.07803427
103	0xbc543b81	-0.01295364
104	0x3cdf6712	0.027270827
105	0x3d9cd406	0.07657628
106	0x3d266618	0.040624708
107	0xbd6d619f	-0.057954427
108	0xbc2832f9	-0.010266059
109	0x3da93a28	0.082630455
110	0xbc89f34b	-0.016839644
111	0xbba97a65	-0.0051720613
112	0x3d498c17	0.049205866
113	0xbd9de3fa	-0.07709499
114	0x3c59a708	0.013284452
115	0xbd06b6e1	-0.03288925
116	0xbce430a9	-0.027855234
117	0x3d40693d	0.046975363
118	0x3ca5b08a	0.020225782
119	0x3a7510d8	0.0009348518
120	0x3d41f182	0.04734946
121	0x3da3b80b	0.07994088
122	0xbd55effc	-0.05223082
123	0x3d0a36eb	0.03374378
124	0x3c9ad80a	0.018901844
125	0x3d5d01d7	0.053956833
126	0xb7635679	-1.3550388e-05
127	0x3c69c978	0.014269225
128	0xbd039b8c	-0.032130763
129	0x3cff0b2e	0.03113326
130	0x3d509442	0.05092264
131	0xbd9a715a	-0.07541151
132	0x3da7ca3f	0.08192872
133	0xbd911b5d	-0.07085297
134	0xbbc3ba7d	-0.005973159
135	0x3ca7dd49	0.02049126
136	0xbcc961de	-0.0245828
137	0x3cb501e6	0.022095632
138	0xbcb9a50b	-0.022661706
139	0xbd0969d3	-0.033548187
140	0x3c6c0027	0.014404333
141	0xbd7edaab	-0.062220257
142	0x3da5d7c9	0.080977984
143	0xbd5ea18f	-0.054353293
144	0xbd9bb58d	-0.076029874
145	0x3d8ea531	0.069651015
146	0x3c090764	0.0083635785
147	0x3cb7cecb	0.022437474
148	0x3cf276c6	0.029597651
149	0xbd13314b	-0.03593568
150	0x3db1d8ce	0.0868393
151	0xbd77f0a2	-0.06053222
152	0x3c254cf0	0.010089144
153	0xbc2cb8a2	-0.010542067
154	0x3a6c3c65	0.0009011685
155	0xba63cd4c	-0.00086899544
156	0xbceceead	-0.028922403
157	0x3c2ea550	0.010659531
158	0x3d024a97	0.031809416
159	0x3d1f0585	0.038823623
160	0x390c6fdf	0.00013393116
161	0xbd7d3430	-0.061817348
162	0x3c984c42	0.01859105
163	0xbccdb608	-0.025111213
164	0xbd2c3537	-0.042042937
165	0x3d5eae75	0.054365594
166	0xbda6627b	-0.081242524
167	0xbc97179f	-0.01844388
168	0x3d431e32	0.04763622
169	0xbc2463ca	-0.010033557
170	0xbdb29e0b	-0.087215506
171	0xbd3dc41b	-0.0463296
172	0x3d8be50a	0.06830795
173	0xbd9019b9	-0.07036156
174	0x3d742593	0.059606146
175	0x3d14be91	0.03631455
176	0x3d571019	0.052505586
177	0xbc0bab98	-0.008524798
178	0xbd56bfa4	-0.052428856
179	0x3b0261c4	0.0019894699
180	0xbbd17f30	-0.0063933358
181	0xbc3f0260	-0.011658281
182	0x3c4f0774	0.012636054
183	0x3aa8f916	0.0012891616
184	0x3d95bb62	0.07311131
185	0xbc6ac5cb	-0.014329384
186	0x3cfc1267	0.030770494
187	0x3d929fbd	0.07159374
188	0x3cfcd9c8	0.030865565
189	0x3d5a35e5	0.053274054
190	0x3d619037	0.055069175
191	0xbd0ee3f5	-0.034885366
192	0xbd7e0672	-0.062017865
193	0xbda136d0	-0.07871783
194	0xbcbbc530	-0.022921175
195	0x3b13d9e8	0.0022560302
196	0x3d818803	0.0632477
197	0xbd315a05	-0.04329874
198	0x3c59ea92	0.013300555
199	0xba068b83	-0.0005132483
200	0x3d41dd11	0.047329966
201	0x3c364fb2	0.011127399
202	0xbcfef493	-0.031122481
203	0x3c768889	0.015047201
204	0xbd874951	-0.06605781
205	0x3c60c42f	0.013718649
206	0xb956e5ff	-0.0002049431
207	0x3d18e9a2	0.037332185
208	0xbd006687	-0.031347778
209	0xbd02cc8e	-0.03193336
210	0xbaf20042	-0.0018463212
211	0x3da67461	0.08127666
212	0x3c1a5411	0.009419457
213	0xbd987074	-0.07443324
214	0x3d688990	0.056771815
215	0x3d7e6ef4	0.062117532
216	0xbd992029	-0.07476837
217	0x3d9ddd5b	0.07708236
218	0xbd8be615	-0.06830994
219	0xbd84e1b4	-0.06488362
220	0x3d638aee	0.055552416
221	0xbd6ba728	-0.05753246
222	0x3c8c4ab8	0.017125472
223	0xbd78604b	-0.060638707
224	0xbd9c48be	-0.07631062
225	0xbd8d4820	-0.068985224
226	0x3d65c98e	0.05610042
227	0x3bfa4059	0.0076370654
228	0x3d45f21a	0.04832659
229	0x3d30e926	0.043191098
230	0xb6ea808e	-6.988709e-06
231	0x3d8caf5d	0.068693854
232	0x3daaebb0	0.08345735
233	0xbbe1b020	-0.006887451
234	0x3d4cf84b	0.050041478
235	0xbdadb66a	-0.08482058
236	0x3d8e7998	0.06956786
237	0xbd5e309d	-0.05424558
238	0xbd93776a	-0.07200511
239	0xbd9508f4	-0.07277098
240	0xbdb1b641	-0.0867734
241	0xbc6a6865	-0.014307116
242	0xbd3f43f8	-0.04669568
243	0x3cea9e91	0.028640063
244	0xbd044344	-0.032290712
245	0x3ca94fc8	0.020667925
246	0x3d200988	0.03907159
247	0x3d9a2cc4	0.075280696
248	0xbce62e0d	-0.02809813
249	0x3da5fc78	0.08104795
250	0xbd26773e	-0.040641062
251	0x3d9ed763	0.077559255
252	0xbc596c7f	-0.013270496
253	0xbd96515f	-0.07339739
254	0xbd9e205b	-0.07721015
255	0xbb468f67	-0.0030297877

gnn.layers.1.node_embedding.0.weight f4 [64, 128]
0	0xbc93e772	-0.018054698
1	0x3d4bb27c	0.049730763
2	0xbcab763a	-0.020930398
3	0x3d8b29d4	0.067950875
4	0xbd1e0610	-0.03858
5	0x3d8907b6	0.06690924
6	0x3c2343ef	0.009964927
7	0xbd85333f	-0.06503915
8	0xbc0f7e1c	-0.008758094
9	0x3b2206b5	0.0024723236
10	0x3d2da98c	0.04239802
11	0xbcad0ccb	-0.021124264
12	0x3d7f1f38	0.062285632
13	0x3d6db3cf	0.058032807
14	0xbd16efa7	-0.036849644
15	0xbcfb41a3	-0.030670946
16	0x3b093ff5	0.0020942662
17	0x3d02149e	0.031757943
18	0xbd3318a9	-0.04372469
19	0xbd96e42f	-0.07367741
20	0x3dacab6c	0.08431134
21	0xbd93d9ef	-0.07219302
22	0xbc230f6e	-0.009952409
23	0x3cbb6b89	0.022878425
24	0xbc9401cf	-0.018067269
25	0xbce80b1d	-0.028325612
26	0x3a5628d1	0.0008169534
27	0xbda8329d	-0.08212779
28	0x3d338040	0.04382348
29	0xbda60dd3	-0.081081055
30	0x3cea54a4	0.028604813
31	0x3cbe934c	0.023263596
32	0xbdad1514	-0.08451286
33	0xbce9e606	-0.028552067
34	0xbd2e0d8a	-0.04249338
35	0xbd289f09	-0.041167293
36	0x3d5b08b2	0.05347509
37	0x3cd7d7cc	0.026348017
38	0xbd7acc33	-0.061229896
39	0x3d05066b	0.032476824
40	0xbd11322f	-0.03544825
41	0xbd3f8b5e	-0.04676377
42	0x3d8602b4	0.06543484
43	0xbd36bd03	-0.04461385
44	0xbd1938d6	-0.03740772
45	0xbd8265be	-0.06367062
46	0xbd872d2c	-0.06600413
47	0xba4cecf5	-0.0007817292
48	0x3b62a8a7	0.0034585388
49	0x3b8eab4d	0.0043539167
50	0xbdb490eb	-0.088167034
51	0xbd99adbb	-0.075038396
52	0x3d8412f1	0.06448925
53	0x399cac83	0.0002988317
54	0xbd8e0493	-0.06934466
55	0x3da227e1	0.079177625
56	0x3cb8b988	0.022549406
57	0xbd68b5bc	-0.05681394
58	0x3dab48a5	0.08363465
59	0xbc819c9c	-0.015821747
60	0xbd209653	-0.03920586
61	0x3d0f837d	0.035037506
62	0xbda4f492	-0.080544606
63	0x3cd1c2c5	0.025605569
64	0xbd939965	-0.07206992
65	0xbcf027e8	-0.029315904
66	0xbd2f9bcb	-0.042873185
67	0x3d2a9158	0.041642517
68	0x3d30d579	0.043172333
69	0x3d7890b7	0.060684886
70	0xbd33bb51	-0.04387981
71	0x3db14602	0.08655931
72	0xbd84faef	-0.06493174
73	0xbd0a668c	-0.033789203
74	0xbc48149b	-0.012211944
75	0x3d2a02f1	0.04150671
76	0x3d426af3	0.047465276
77	0xbc2497b2	-0.010045933
78	0x3d28dc5b	0.041225772
79	0x3d011b5a	0.031520225
80	0x3d98f33b	0.074682675
81	0xbdafb458	-0.0857932
82	0xbdaa5726	-0.083174035
83	0x3d680640	0.056646585
84	0xbd64eda4	-0.055890694
85	0xbd82da71	-0.06389321
86	0xbb97dead	-0.0046346993
87	0xbd388286	-0.04504635
88	0xbce5142a	-0.027963717
89	0x3d27e026	0.04098525
90	0xbc6a0f36	-0.014285853
91	0x3d2c30d1	0.042038742
92	0x3c46b4dd	0.012128082
93	0xbd77745c	-0.060413703
94	0x3d5b73e9	0.053577337
95	0x3cc63c20	0.024198592
96	0xbdace4d0	-0.0844208
97	0x3d7468b2	0.059670158
98	0xbd877de3	-0.06615808
99	0x3c58bcfd	0.013228652
100	0xbda26c93	-0.07930865
101	0xbd871b36	-0.06596987
102	0xbd60eb90	-0.05491215
103	0x39918adf	0.00027760022
104	0xbc285b87	-0.010275728
105	0xbdb0e8db	-0.08638164
106	0xbd57206d	-0.052521158
107	0x3d0e0661	0.034674052
108	0x3d2a4a78	0.041574925
109	0x3d327dfb	0.043577176
110	0xbcc23946	-0.02370895
111	0x3d934b94	0.0719215
112	0x3ce063d4	0.027391352
113	0xbd59e63d	-0.053198088
114	0x3ce23ece	0.027617838
115	0xbced45aa	-0.028963882
116	0x3d3b0830	0.045662105
117	0xbb42dcf8	-0.0029733758
118	0xbd256243	-0.040376913
119	0x3d98c607	0.07459646
120	0x3d9c92df	0.07645201
121	0xbc7070f0	-0.014675364
122	0x3c807c22	0.015684191
123	0x3c858fdc	0.016303949
124	0xbd91db53	-0.07121911
125	0x3d6b6927	0.057473328
126	0xbd0283d3	-0.031864
127	0xbd957a5a	-0.07298727
128	0x3d845d16	0.06463067
129	0xbb4770ff	-0.003043234
130	0xbd8411b7	-0.06448691
131	0x3d79a6a1	0.060949925
132	0x3d8013ca	0.062537745
133	0xbc128c20	-0.008944541
134	0x3d9eb514	0.07749382
135	0xbd15dbf8	-0.03658673
136	0x3d86d24f	0.06583082
137	0x3da7861d	0.08179877
138	0xbca16829	-0.019702988
139	0xbc35a494	-0.011086602
140	0x3d081eb5	0.03323241
141	0xbbb56ac6	-0.00553641
142	0x3d8a0518	0.06739253
143	0xbd37810c	-0.044800803
144	0x3cb30d67	0.021856977
145	0x3d1e8678	0.03870246
146	0x3d69a681	0.057043556
147	0xbc3f82c3	-0.011688891
148	0x3da8adfc	0.0823631
149	0x3c4035d6	0.0117315855
150	0xbc427879	-0.011869543
151	0xbd8e2787	-0.06941133
152	0x3da4f358	0.08054227
153	0xbcd61fcd	-0.02613821
154	0x3c5bf18b	0.013424288
155	0xbd468cc5	-0.048474092
156	0x3d86bbe2	0.065788046
157	0x3da05485	0.07828621
158	0xbda1bc43	-0.07897236
159	0x3d12aa3e	0.035806887
160	0xbd79780f	-0.060905512
161	0x3d02cd2c	0.03193395
162	0x3c8783cf	0.016542343
163	0x3daa59ea	0.08317931
164	0x3c8a2c5a	0.016866852
165	0x3d306c97	0.04307231
166	0x3cd736dd	0.026271278
167	0x3d3898d7	0.045067634
168	0x3d86618e	0.06561576
169	0xbd7b71ee	-0.06138795
170	0x3ceb32fb	0.028710833
171	0x3d94bb31	0.072622664
172	0x3d4c93c1	0.049945597
173	0x3c28b9c0	0.0102981925
174	0xbc65711b	-0.014004017
175	0x3c4cf82f	0.012510343
176	0x3cf53606	0.029932987
177	0x3cf0b4f9	0.02938317
178	0xbd318963	-0.043343913
179	0x3d4e4253	0.05035622
180	0xbcd0e994	-0.025502004
181	0xbc4f3db1	-0.012648986
182	0xbd822337	-0.06354373
183	0xbd91aeb8	-0.07113403
184	0x3d27fca2	0.041012414
185	0x3cf7c21b	0.030243924
186	0x3c581c41	0.01319033
187	0xbcf9cab7	-0.03049217
188	0xbcd7acd7	-0.026327534
189	0x3d130c63	0.035900485
190	0xbdb11699	-0.08646888
191	0x3ce4d21e	0.027932223
192	0x3da48cf7	0.080346994
193	0xbdb1f009	-0.08688361
194	0x3d3c59b6	0.045983993
195	0xbd0412f3	-0.032244634
196	0x3d03cd75	0.03217836
197	0x3d8e734f	0.06955587
198	0xbd847ada	-0.064687446
199	0x3d067308	0.032824546
200	0xbd4a9081	-0.049454216
201	0x3c42df22	0.011894019
202	0x3d93613a	0.07196279
203	0x3b1d1e88	0.0023974497
204	0xbbe1012f	-0.006866596
205	0x3d5db7ea	0.054130472
206	0xbd8aa180	-0.06769085
207	0xbc623ce8	-0.0138084665
208	0xbccd3db9	-0.025053846
209	0x3b241005	0.0025033962
210	0x3d45a65f	0.048254367
211	0x3d131db0	0.035916984
212	0xbd67ae15	-0.056562502
213	0xbd7ea4bf	-0.062168833
214	0xbdae7faa	-0.08520444
215	0x3d0e9521	0.03481019
216	0xbd2dccea	-0.04243175
217	0xbda563db	-0.080756865
218	0xba4952e4	-0.0007679893
219	0xbd81fbf3	-0.063468836
220	0xbca3c714	-0.019992389
221	0x3d6b72b0	0.05748242
222	0x3cc47bd2	0.023984823
223	0x3da27220	0.07931924
224	0x3d8b402d	0.0679935
225	0x3d5b2569	0.053502474
226	0x3d726140	0.059174776
227	0xbd99ba49	-0.07506234
228	0x3be7d033	0.00707438
229	0x3cb561a0	0.022141278
230	0xbd83dd21	-0.06438661
231	0xbd4b5684	-0.049643055
232	0x3d022a8d	0.03177886
233	0x3c27cfeb	0.010242443
234	0x3d4ae819	0.04953775
235	0x3d9a6365	0.07538489
236	0x3d7ef175	0.06224199
237	0xbda52d7e	-0.080653176
238	0xbaf61534	-0.001877463
239	0xbd993594	-0.07480922
240	0xbce4c306	-0.027925026
241	0xbcae8c88	-0.021307245
242	0x3bb07951	0.005385556
243	0x3d3b511f	0.04573166
244	0xbdacc8b2	-0.08436717
245	0xbce003bb	-0.027345529
246	0x3d7530cf	0.059861
247	0x3b31e180	0.0027142465
248	0x3bb1f6cd	0.0054310323
249	0x3d25b15e	0.040452354
250	0x3b2f99f6	0.0026794649
251	0xbd6b8523	-0.057500016
252	0xbcbc4b0c	-0.022985004
253	0xbabfc00f	-0.0014629381
254	0x3d20d67f	0.03926706
255	0xbd5675d3	-0.05235846

gnn.layers.1.edge_embedding.0.weight f4 [64, 131]
0	0xbd37d0a4	-0.04487671
1	0x3d8f7926	0.07005529
2	0xbc4b8e49	-0.01242406
3	0xbd322387	-0.043490913
4	0x3d892016	0.06695573
5	0x3d899b27	0.06719046
6	0xbd6d8d03	-0.057995807
7	0x3d8e203f	0.06939744
8	0x3c734ffa	0.014850611
9	0xbc79e081	-0.01525128
10	0xbd84adae	-0.06478439
11	0xbd0db748	-0.03459862
12	0x3cefe2b6	0.029282909
13	0x3a5ac3bb	0.0008345206
14	0xbceed8c2	-0.029156093
15	0x3d832d3e	0.06405114
16	0xbdad77e0	-0.0847013
17	0xbbfcc285	-0.007713618
18	0x3d0052fa	0.031329133
19	0xbc0a723e	-0.008450089
20	0x3c8cebb3	0.017202234
21	0x3cbc8af9	0.023015486
22	0xbc48292b	-0.012216846
23	0xbdafaa54	-0.085774094
24	0xbc8f1b11	-0.017468961
25	0x3d6779b8	0.056512564
26	0xbd70bd56	-0.058774315
27	0xbd9f5af7	-0.07781022
28	0x3d998b08	0.07497221
29	0x3d69fe22	0.057127126
30	0xbc61842e	-0.013764424
31	0x3bf91840	0.007601768
32	0x3d04d62d	0.032430816
33	0x3d9efc3c	0.07762954
34	0xbc67a93d	-0.014139471
35	0x3d9afc3c	0.07567641
36	0x3c3f49ee	0.011675341
37	0x3d109b92	0.035304613
38	0xbdb03631	-0.08604086
39	0xba30b6ff	-0.0006741136
40	0xbcdcaceb	-0.026937922
41	0x3cd91c98	0.026502892
42	0x3ccdc765	0.025119493
43	0x3d19c3aa	0.037540115
44	0xba522301	-0.000801608
45	0x3a4f2657	0.00079021364
46	0x3c1bb308	0.009503134
47	0xbc1c8203	-0.009552482
48	0xbc714c89	-0.01472772
49	0xbda54c68	-0.08071214
50	0x3d92f7cb	0.07176169
51	0xbc1534db	-0.00910684
52	0x3d39e833	0.045387458
53	0x3d290b88	0.041270763
54	0x3da8d319	0.08243389
55	0xbc9be828	-0.0190316
56	0xbdb00533	-0.08594742
57	0x3d0426b2	0.032263465
58	0xbd68040f	-0.056644496
59	0xbcd4ea55	-0.025990644
60	0x3d9c4ea5	0.07632188
61	0xbda4c7b8	-0.08045906
62	0x3d8d7dc0	0.069087505
63	0xbd939690	-0.07206452
64	0x3bf61ea4	0.007510977
65	0xbd20efb3	-0.039291095
66	0xbcae18a0	-0.021251976
67	0xbd9e3cb3	-0.07726421
68	0x3cad94a1	0.021189036
69	0x3d9ea4eb	0.07746299
70	0x3d8294a3	0.063760065
71	0xbcc6bd9f	-0.02426034
72	0xbcf5a2b5	-0.029984811
73	0xb8404232	-4.5838016e-05
74	0x3d9e3bba	0.07726236
75	0x3d0070d9	0.03135762
76	0xbd9e2fe4	-0.07723978
77	0xbd6f1ba1	-0.05837596
78	0x3da88470	0.082283854
79	0x3d9aaf8a	0.07553013
80	0xbc2eeb41	-0.010676206
81	0x3cba31cc	0.022728823
82	0xbd810185	-0.06299118
83	0xbd801bb8	-0.06255287
84	0xbd78f864	-0.06078376
85	0x3d3ac27e	0.04559564
86	0xbc815957	-0.01578967
87	0xbd14001c	-0.036132917
88	0x3ccfbb97	0.025358004
89	0x3daf5c2f	0.085625045
90	0xbd559293	-0.052141737
91	0xbda20a80	-0.07912159
92	0x3d06cac1	0.032908205
93	0x3d7cda41	0.06173158
94	0x3d465a5b	0.048426013
95	0xbd7d68ee	-0.061867647
96	0x39db3d59	0.00041816643
97	0x3d86db98	0.06584853
98	0x3da000ff	0.0781269
99	0xbd780b2f	-0.06055754
100	0xbdadd0c1	-0.08487082
101	0x3cacdc7f	0.021101234
102	0xbd2aec4a	-0.04172925
103	0x3d462f5f	0.04838502
104	0xbd2bfc9f	-0.041988965
105	0xbcbbbc57	-0.022916956
106	0xbcce9948	-0.025219575
107	0xbd82e120	-0.063905954
108	0xbd5805fb	-0.05274008
109	0x3c80ae01	0.015707972
110	0x3d837954	0.06419626
111	0x3cb1d7ee	0.021709409
112	0x3d53bdd5	0.05169471
113	0xbd80a16d	-0.062807895
114	0x3da5995f	0.08085894
115	0x3d4ab67e	0.049490444
116	0x3d495ad0	0.04915887
117	0x3c9400ad	0.018066728
118	0xbbb115cb	-0.0054042093
119	0xbb9c409e	-0.004768445
120	0xbda76f4d	-0.08175526
121	0x3ab223db	0.0013591008
122	0x3d9c85c9	0.07642705
123	0xbd028529	-0.031865273
124	0x3aa4edec	0.0012583113
125	0x3c4ac2b6	0.012375524
126	0x3d10b58b	0.035329383
127	0xbb4deaef	-0.003142055
128	0xbc2934d9	-0.010327541
129	0x3cb6aecd	0.022300148
130	0xbc79a566	-0.015237188
131	0x3cdb7c41	0.026792647
132	0x3bedafa2	0.007253603
133	0xbd98ddd3	-0.074641846
134	0x3d266b62	0.040629752
135	0x3d97f608	0.074199736
136	0xbca3dfc6	-0.020004164
137	0xbd246a92	-0.040140696
138	0x3d885938	0.06657642
139	0xbd778bf8	-0.06043622
140	0x3c27b923	0.010237011
141	0x3d8d7810	0.06907666
142	0x3d6e3bb5	0.05816241
143	0x3d0ee577	0.034886803
144	0x3d60e6f2	0.054907747
145	0x3c057bbf	0.008147179
146	0x3c5d484e	0.013506008
147	0xbd35cd00	-0.044384956
148	0xbd849303	-0.06473353
149	0x3ce1e9c5	0.02757729
150	0xbd6f05a8	-0.058355004
151	0xbd3763eb	-0.044773024
152	0xbc71d439	-0.0147600705
153	0x3ca7f230	0.020501226
154	0x3c8a5a64	0.016888805
155	0xbcaf160b	-0.021372816
156	0x3da7d771	0.08195389
157	0x3d1453eb	0.036212843
158	0x3db100a1	0.08642698
159	0xbcd1d11e	-0.02561241
160	0xbd44a41b	-0.048008066
161	0xbd132886	-0.035927318
162	0x3901a85e	0.0001236512
163	0xbd5c80c3	-0.053833734
164	0x3d66c4f3	0.05634017
165	0xbd521c2b	-0.051296394
166	0x3ccf4ee1	0.025306167
167	0xbc5eebfd	-0.013606069
168	0xbd6d17e7	-0.057884123
169	0xbca91943	-0.020641929
170	0xbc9e1658	-0.019297764
171	0xbd885dc4	-0.066585094
172	0x3d6aa7ba	0.057288863
173	0xbda3c7f8	-0.079971254
174	0xbd0a54cc	-0.033772275
175	0xbd24271a	-0.040076353
176	0xbb57820b	-0.0032883908
177	0xbd66e036	-0.056366168
178	0xbd271139	-0.04078791
179	0x3d038bad	0.032115627
180	0x3cee6cca	0.029104609
181	0x3d1bd223	0.0380422
182	0xbd040cf4	-0.032238916
183	0xbcb08847	-0.021549357
184	0x3d0ddd31	0.034634773
185	0x3d560c1b	0.05225764
186	0xbd3e97ce	-0.04653149
187	0xbc83d8ef	-0.016094653
188	0xbbf689d8	-0.0075237565
189	0xba9eed40	-0.0012125149
190	0xbd744c96	-0.05964335
191	0xbd305607	-0.043050792
192	0x3d71fb6b	0.05907766
193	0xbc443d3d	-0.011977491
194	0x3d5bba98	0.053644747
195	0x3d908b44	0.07057813
196	0xbd280f00	-0.04102993
197	0xbd54c71a	-0.05194769
198	0xbd47d002	-0.048782356
199	0xbc8c5bdd	-0.017133648
200	0xbcb3c56c	-0.021944724
201	0xbd846586	-0.064646766
202	0x3c96ce46	0.018408906
203	0x3d369ec7	0.044585016
204	0xbc39b817	-0.011335394
205	0xbdae1b42	-0.08501293
206	0xbc2beaca	-0.01049299
207	0xbd21e062	-0.03952063
208	0xbca3d1d1	-0.01999751
209	0xbd2a7a3a	-0.04162047
210	0x3bd639ca	0.0065376507
211	0xbd550f18	-0.052016348
212	0x3d12b072	0.035812803
213	0x3db07bea	0.08617385
214	0x3d1c7bc1	0.03820396
215	0x3d2fd7fc	0.042930588
216	0xbcce99c3	-0.025219804
217	0x3c005611	0.00783302
218	0x3d9b24ed	0.075754024
219	0x3cc4edc0	0.02403915
220	0xbd8940b1	-0.06701792
221	0x3d85c798	0.0653221
222	0xbda5bd23	-0.080927156
223	0x3d953fb3	0.0728754
224	0x3d203570	0.039113462
225	0xbd7f6cb5	-0.06235953
226	0x3b8c8fc3	0.0042895987
227	0xbd630e2a	-0.05543343
228	0x3dafc0a7	0.085816674
229	0x3cfd31f1	0.030907603
230	0xbcc27312	-0.02373651
231	0x3d182c8a	0.03715185
232	0xbd09e183	-0.03366233
233	0x3d34ecbe	0.044171087
234	0x3d780f1a	0.060561277
235	0x3d956657	0.072949104
236	0x3d6ede72	0.05831761
237	0xbaa99ca5	-0.001294036
238	0x3d266eee	0.040633135
239	0xbd47f48d	-0.048817206
240	0x3d886b58	0.06661099
241	0xbcb0d8ca	-0.021587748
242	0xbda0bf00	-0.0784893
243	0x3da311f0	0.07962406
244	0x3d772b83	0.06034423
245	0xbb96648e	-0.004589624
246	0xbd337074	-0.043808416
247	0x3d8886c1	0.06666327
248	0x3d97c086	0.07409768
249	0x3cd16ee4	0.025565572
250	0x3d4a0f44	0.049330965
251	0xbccaa99e	-0.024739083
252	0x3d92d8b3	0.07170238
253	0x3d733a95	0.05938204
254	0xbd5d5ea1	-0.054045323
255	0xbbb4875c	-0.0055093

gnn.layers.2.node_embedding.0.weight f4 [64, 128]
0	0x3c32421c	0.0108800195
1	0xbcf049bd	-0.029332036
2	0xbd99082a	-0.0747226
3	0xbcea4f67	-0.028602315
4	0xbbae7757	-0.005324285
5	0x3c9e0d01	0.01929331
6	0xbdaa5bbe	-0.0831828
7	0xbcd800a8	-0.0263675
8	0x3d85b0ae	0.065278396
9	0xbd979361	-0.07401157
10	0x3d92e353	0.07172265
11	0x3d9bf911	0.07615865
12	0x3c917148	0.017754212
13	0x3cbc1ff6	0.022964459
14	0x3d13e80e	0.036109976
15	0xbd4feeec	-0.050764963
16	0x3d6bc272	0.057558484
17	0xb998f793	-0.00029176156
18	0x3cf34947	0.029698027
19	0xbc373e7b	-0.01118433
20	0xbd918aa3	-0.07106521
21	0xbda1bccf	-0.078973405
22	0xbce5a5f1	-0.028033229
23	0xb98ba47d	-0.000266347
24	0xbd2b9cff	-0.04189777
25	0xbda08e45	-0.07839636
26	0xbd04d820	-0.032432675
27	0x3ceda2b2	0.029008243
28	0x3c0bc773	0.008531439
29	0xbd019bc2	-0.031642683
30	0x3ceddce6	0.029035997
31	0xbce1a404	-0.027544029
32	0x3db0cb29	0.086325
33	0xbd9ca012	-0.076477185
34	0xbd957f8d	-0.07299719
35	0xbd8baace	-0.06819688
36	0xbc734d8b	-0.014850031
37	0x3caf0ea3	0.021369284
38	0xbcc85302	-0.024453644
39	0xbce84332	-0.028352354
40	0xbda60444	-0.08106282
41	0xbabe9a42	-0.0014541822
42	0xbd28cebe	-0.04121279
43	0xbda2e22d	-0.07953296
44	0xbd4413e5	-0.047870535
45	0x3d8769e6	0.066119954
46	0xbdadbc2c	-0.084831566
47	0xbcf2aa07	-0.029622091
48	0xbcfd604c	-0.030929707
49	0x3d9489ee	0.072528705
50	0x3c613fce	0.013748122
51	0xbda022b8	-0.07819122
52	0xbd2bcd31	-0.041943733
53	0xbdb12a8a	-0.08650692
54	0xbd938d67	-0.07204705
55	0xbc64c97a	-0.013964051
56	0xbd966410	-0.07343304
57	0xbda78d4c	-0.08181247
58	0xbbde8cd4	-0.0067916904
59	0xbc10afc1	-0.0088309655
60	0x3c92abc4	0.01790417
61	0xbc65d82b	-0.014028589
62	0xbda33a9e	-0.07970165
63	0xbd74f68c	-0.059805438
64	0x3d870773	0.06593218
65	0x3d206b91	0.039165083
66	0xbb33025a	-0.0027314634
67	0x3cd170f8	0.025566563
68	0x3ccdb090	0.025108606
69	0xbd6cf94f	-0.057854947
70	0xbd3063ce	-0.04306393
71	0x3d83002e	0.06396519
72	0xbcbe9160	-0.02326268
73	0xbdafef69	-0.08590586
74	0xbd0307f9	-0.031990025
75	0x3d982ce6	0.07430439
76	0xbd7435da	-0.05962167
77	0xbb1a55f2	-0.0023549763
78	0xbd888374	-0.06665698
79	0xbd794af6	-0.060862504
80	0xbc821789	-0.015880363
81	0x3d17b1aa	0.037034668
82	0x3d84d064	0.0648506
83	0xbd7e5dfe	-0.062101357
84	0xbd6a72ac	-0.057238266
85	0xbcf85732	-0.030315015
86	0x3d689c5b	0.056789737
87	0x3da6e953	0.08149972
88	0x3d8d63f9	0.06903834
89	0xbd650ae2	-0.05591858
90	0xbcdb57db	-0.026775291
91	0xbba2bc2b	-0.004966279
92	0xbd42e6de	-0.047583453
93	0xbdaf71ac	-0.08566603
94	0x3d654ff0	0.055984437
95	0xbd3a6596	-0.045507036
96	0xbd8c7ae4	-0.06859377
97	0x3c8d701c	0.017265372
98	0x3d97f2df	0.07419371
99	0x3c32389b	0.010877754
100	0x3c0ac023	0.0084686605
101	0xbda674a5	-0.08127717
102	0x3c864d7a	0.016394366
103	0x3d7d6be8	0.061870486
104	0xbc43d206	-0.011951929
105	0xbd734610	-0.05939299
106	0xbd9da56b	-0.076975666
107	0xbc8c1cb3	-0.017103529
108	0xbd925686	-0.07145409
109	0xbda58283	-0.08081534
110	0x3c6b240b	0.014351855
111	0xbd18cb69	-0.037303362
112	0x3d9346d0	0.07191241
113	0x3bc7ff7b	0.0061034537
114	0xbd1dcefa	-0.038527466
115	0x3d6f4651	0.05841667
116	0xba8f5cf6	-0.0010937739
117	0x3c5f3388	0.013623126
118	0xbd0876d8	-0.033316463
119	0xbdad5ef6	-0.08465378
120	0x3aa30790	0.0012438167
121	0xbd77873b	-0.0604317
122	0xbd988a64	-0.07448271
123	0xbcda43a5	-0.026643584
124	0x3d4a38ae	0.04937046
125	0xbd486a44	-0.048929468
126	0x3cf2e4f5	0.02965019
127	0xbd4b49d8	-0.04963097
128	0xbd9b293d	-0.07576225
129	0xbdb147d3	-0.086562775
130	0x3d1daff1	0.03849787
131	0xbc5d5e1a	-0.013511205
132	0xbbda7a77	-0.006667431
133	0x3d8e487f	0.06947421
134	0xbc201f4a	-0.009773085
135	0x3ca7d13e	0.020485517
136	0xbd26d54b	-0.040730756
137	0xbc1e7e51	-0.009673671
138	0xbd7d110b	-0.06178383
139	0xbd06345a	-0.03276477
140	0xbc4907ac	-0.0122698955
141	0x3bac03f5	0.005249495
142	0xbd81ed3a	-0.063440755
143	0x3cc76790	0.024341375
144	0xbd231d1e	-0.03982269
145	0xbc8e9f86	-0.017410051
146	0x3c92950d	0.017893339
147	0x3cb316f8	0.021861538
148	0xbd981b7a	-0.07427116
149	0xbd8dcbf5	-0.06923667
150	0x3d8c15b9	0.06840081
151	0xbd0e6a2f	-0.034769233
152	0x3d956d16	0.07296197
153	0xbcc1f2b2	-0.023675296
154	0x3d800776	0.06251423
155	0x3ce02951	0.027363451
156	0x3b83c7e3	0.004021631
157	0x3d612b47	0.054972913
158	0xbcbb7877	-0.02288459
159	0xbd846ac2	-0.06465675
160	0x3d900234	0.0703167
161	0xbda3b738	-0.079939306
162	0x3d96d9de	0.073657736
163	0xbc48a968	-0.012247421
164	0xbc6176df	-0.013761251
165	0xbd4a70d7	-0.04942402
166	0xbcc5ca0a	-0.024144191
167	0xbd77a2c0	-0.060457945
168	0xbda328bf	-0.07966756
169	0x3c1205af	0.008912488
170	0xbbdfd203	-0.0068304553
171	0x3d72eb91	0.059306685
172	0x3d9f96a1	0.07792402
173	0xbcc97ad2	-0.024594698
174	0xbc445aa1	-0.011984498
175	0x3c8f085a	0.017460037
176	0x3d989f46	0.07452254
177	0xbcf274e2	-0.02959675
178	0xbd4316f3	-0.047629308
179	0xbaabef46	-0.0013117574
180	0x3d32e3ac	0.043674156
181	0x3d8b23ca	0.067939356
182	0x3cd75748	0.026286736
183	0x3d6d2ac0	0.057902098
184	0x3d97c8c1	0.07411338
185	0xbd3a6322	-0.045504697
186	0xbd39f451	-0.045399014
187	0x3d9f97ce	0.07792626
188	0x3da57e42	0.080807224
189	0xbc2f799c	-0.010710146
190	0xbc54202a	-0.012947122
191	0xbd99b6e7	-0.07505589
192	0x3d91c1b1	0.07117022
193	0xbce22735	-0.027606586
194	0xbdaf5694	-0.08561435
195	0x3d941ad7	0.07231682
196	0x3d2406c3	0.04004551
197	0xbda650d4	-0.081208855
198	0x3d1968ff	0.037453648
199	0x3d40322b	0.046922844
200	0x3d9ae155	0.0756251
201	0x3d2e7387	0.042590644
202	0x3d951549	0.072794504
203	0x3c22eaed	0.009943706
204	0xbd3bab41	-0.045817617
205	0xbda44857	-0.0802161
206	0x3d8bd08d	0.06826887
207	0xbd97b608	-0.074077666
208	0xbd037002	-0.03208924
209	0xbc47ac70	-0.012187108
210	0xbd11aa07	-0.03556254
211	0xbd0dc4f3	-0.034611654
212	0x3cc76af1	0.024342986
213	0x3d31c17b	0.043397408
214	0x3cb7c03c	0.022430532
215	0xbd7f5c0b	-0.06234364
216	0x3c850fb8	0.016242847
217	0xbd6989bf	-0.05701613
218	0xbdb4fc9d	-0.08837245
219	0xbd89064d	-0.06690655
220	0x3d783c21	0.06060422
221	0x3ba12f21	0.0049189483
222	0x3d13ba9a	0.03606663
223	0x3ba55cfb	0.0050464845
224	0xbc79dd3b	-0.015250499
225	0xbd201435	-0.03908177
226	0xbd10f32a	-0.03538815
227	0x3d73f168	0.059556395
228	0xbd469d2d	-0.04848974
229	0x3d90973a	0.07060094
230	0xbdaa7fce	-0.08325158
231	0xbd56ab14	-0.052409247
232	0x3da129e4	0.07869318
233	0xbc47f803	-0.012205127
234	0xbcfd9ae6	-0.03095765
235	0xbd8296ba	-0.06376405
236	0x3cff53d8	0.03116791
237	0xbd0a0d87	-0.033704307
238	0xbcd51eb9	-0.026015626
239	0x3da97190	0.082736135
240	0x3cc273da	0.023736883
241	0xbd58d691	-0.052939
242	0xbc07c4ba	-0.008286649
243	0xbc99ff4d	-0.018798495
244	0xbdafd078	-0.08584684
245	0xbd8024d6	-0.06257026
246	0xbd5d290e	-0.05399423
247	0x3da03eb7	0.07824462
248	0x3d3438ba	0.04399941
249	0x3d049b4d	0.03237467
250	0xbcbdf2c3	-0.023187047
251	0x3c0cfa77	0.008604637
252	0x3d402a34	0.046915248
253	0x3d4fc0bd	0.05072092
254	0xbcf37185	-0.029717216
255	0x3c970242	0.018433694

gnn.layers.2.edge_embedding.0.weight f4 [64, 131]
0	0xbd920e04	-0.071315795
1	0x3cde62b0	0.027146667
2	0x3da2b26a	0.07944186
3	0x3c9bd03d	0.019020194
4	0xbcd37127	-0.025810791
5	0xbc90beec	-0.017669164
6	0xbd88a089	-0.06671245
7	0xbc5e124e	-0.013554169
8	0xbbf2277c	-0.007389961
9	0xbd7f0a97	-0.06226596
10	0xbdb21f33	-0.08697357
11	0x3d5d29e1	0.053995017
12	0x3dad361d	0.08457587
13	0x3d8a34ea	0.06748374
14	0x3d43cb28	0.047801167
15	0x3d809cba	0.06279893
16	0x3d009143	0.031388532
17	0x3d196e3d	0.037458647
18	0xbcd1ef05	-0.025626669
19	0xbd8c6e5e	-0.06856988
20	0xbd2dcdc8	-0.042432576
21	0x3c83bf1e	0.016082343
22	0xbc803468	-0.01564999
23	0x3d8a55c1	0.067546375
24	0x3dac7ff2	0.08422841
25	0xbb65966b	-0.0035032283
26	0x3d806ea7	0.06271105
27	0x3bf19013	0.0073719113
28	0x3d5bb741	0.05364156
29	0x3cf81f87	0.03028847
30	0xbd969e38	-0.073543966
31	0x3cd9a90b	0.026569864
32	0xbd9dfab9	-0.07713837
33	0xba535b71	-0.0008062637
34	0x3d86501a	0.06558247
35	0x3d61e44f	0.055149373
36	0x3d833c46	0.064079806
37	0x3befa6e3	0.0073135956
38	0xbc54479b	-0.012956525
39	0x3ae1ceb4	0.001722774
40	0x3cbdd6ac	0.023173653
41	0x3da10a95	0.078633465
42	0x3d8d927d	0.06912706
43	0x3daf49cf	0.08559
44	0xbab5ff24	-0.0013885242
45	0xbc4573e2	-0.012051554
46	0xbceabc67	-0.02865429
47	0x3d2cc41f	0.042179223
48	0xbd8b1411	-0.06790937
49	0x3cf3b841	0.029750945
50	0xbd2b0f72	-0.041762777
51	0xbd4e28f4	-0.050332025
52	0xbd232492	-0.039829798
53	0x3c924567	0.01785536
54	0xbdae6b32	-0.0851654
55	0xbd471065	-0.04859962
56	0xbd15df8e	-0.03659015
57	0xbcf8a8c9	-0.03035392
58	0xbd17d121	-0.037064675
59	0x3d30e33d	0.04318546
60	0x3c0294ca	0.007970044
61	0xbd61f539	-0.055165503
62	0xbda5bf4d	-0.08093128
63	0xbd01c171	-0.03167862
64	0xbcd96cb7	-0.026541097
65	0xbca2e4a0	-0.019884408
66	0xbb7f4c62	-0.003895544
67	0xbd839f7d	-0.06426904
68	0xbd8b8c7f	-0.06813907
69	0x3cfb871d	0.030704075
70	0x3b05fdcc	0.0020445464
71	0xbd3cbdbc	-0.046079382
72	0x3da42343	0.08014538
73	0xbd9add49	-0.07561738
74	0xbda31648	-0.07963234
75	0x3c3ea814	0.011636753
76	0x3c345967	0.011007643
77	0xbd34049a	-0.0439497
78	0xbce66e18	-0.028128669
79	0xbce0c3e6	-0.027437162
80	0x3cd29693	0.025706565
81	0x3d774fce	0.060378842
82	0x3d8c4ca1	0.06850553
83	0xbc61aa5c	-0.013773527
84	0x3cbe2698	0.023211762
85	0x3d95cc4c	0.07314357
86	0x3d15fffe	0.036621086
87	0x3aced1c4	0.0015779068
88	0xbd87dfd8	-0.06634492
89	0xbd2f7b49	-0.042842183
90	0x3c88ed23	0.016714638
91	0x3d422903	0.047402393
92	0xbdaf7ff9	-0.08569331
93	0x3cb2be05	0.021819124
94	0x3c46d126	0.012134826
95	0x3ce3a351	0.027787836
96	0xbd9c963b	-0.07645842
97	0x3c03bcd8	0.008040629
98	0x3d9419b7	0.07231467
99	0x3db12460	0.08649516
100	0x3ce98b05	0.028508672
101	0xbd27991d	-0.040917505
102	0xbd9d1bc4	-0.076713115
103	0x3b6006fb	0.0034183848
104	0xbca193c5	-0.019723782
105	0x3d5eed2e	0.05442541
106	0x3d27dbfa	0.04098127
107	0xbbf7e913	-0.0075656264
108	0xbd371256	-0.04469522
109	0x3d3b3789	0.04570726
110	0xbd8e7e88	-0.06957728
111	0x3c7e0523	0.015504154
112	0xbd2f8e1a	-0.042860128
113	0xbd5fbe5e	-0.054624908
114	0x3cbc4375	0.022981385
115	0x3dadc79a	0.084853366
116	0xbd841b30	-0.06450498
117	0x3d5e322f	0.054247078
118	0x3d57cbe4	0.05268468
119	0xbdad81c2	-0.08472015
120	0xbc0599e3	-0.008154365
121	0x3d0013d4	0.03126891
122	0xbd9a3375	-0.07529346
123	0xbd8ad4ff	-0.06778907
124	0x3ad15b1a	0.0015972585
125	0x3d6befb7	0.057601657
126	0x3dabe5af	0.08393418
127	0xbd330fa0	-0.043716073
128	0xbd362f16	-0.0444785
129	0x3d802926	0.062578484
130	0xbc3e0299	-0.011597299
131	0x3c08ba4a	0.008345196
132	0xbd32610f	-0.043549594
133	0x3cd97270	0.026543826
134	0xbca1b281	-0.019738438
135	0x3da39b61	0.079886205
136	0x3d8ce8e4	0.06880358
137	0xbd6aba27	-0.057306435
138	0xbc4d9c36	-0.012549451
139	0xbd214fa2	-0.039382584
140	0xbb65e6fa	-0.00350803
141	0xbd66f193	-0.056382727
142	0xbbd49b38	-0.00648823
143	0xbc174e45	-0.0092349695
144	0x3c2691bd	0.010166583
145	0xbd8125c5	-0.06306032
146	0x3c794d5f	0.015216201
147	0xbc651f3f	-0.0139845
148	0x3d42e2bd	0.047579516
149	0xbd53589a	-0.05159817
150	0xbd10789a	-0.035271265
151	0xbbe977e9	-0.00712489
152	0xbdb16924	-0.08662632
153	0x3d192f09	0.03739837
154	0xbb74970c	-0.0037321476
155	0x3c54490c	0.012956869
156	0xbd3f5d51	-0.046719853
157	0x3d8ddf5a	0.069273666
158	0x3cf5fb58	0.030027077
159	0xbc3c1e00	-0.011481762
160	0x3d9f0e87	0.07766443
161	0x3cafa5fc	0.021441452
162	0xbd3100d3	-0.043213677
163	0xbcf6e605	-0.030138979
164	0x3db0e762	0.08637883
165	0xbd3ccd2d	-0.04609411
166	0xbd727353	-0.059192013
167	0x3db069f2	0.086139575
168	0x3d9e1a6f	0.077198856
169	0x3ca8fe49	0.020629065
170	0xbd953989	-0.072863646
171	0x3cc90823	0.024540013
172	0xbd573a39	-0.05254576
173	0x3d459165	0.048234362
174	0x3c601c41	0.013678611
175	0xbd9533b8	-0.07285255
176	0xbb82c2a9	-0.0039904905
177	0xbd804267	-0.06262665
178	0x3cf6f7b7	0.030147417
179	0x3d98a8ac	0.074540466
180	0xbd33e2bc	-0.043917403
181	0xbc40f074	-0.0117760785
182	0x3db05f35	0.08611909
183	0x39dec735	0.0004249156
184	0xbc3bd362	-0.011463972
185	0xbd991356	-0.07474391
186	0x3d9ffeaf	0.07812249
187	0x3d9e612e	0.07733379
188	0xbd58e8c9	-0.052956376
189	0x3d46d30c	0.048541114
190	0x3d38240c	0.044956252
191	0xbd7dfc47	-0.06200817
192	0x3db07465	0.086159505
193	0xbc97ec90	-0.018545419
194	0xbd8f43c6	-0.06995349
195	0xbd164776	-0.036689244
196	0x3cbda7f9	0.023151385
197	0x3d8bcd0d	0.0682622
198	0x3d6aba5c	0.057306632
199	0xbc28d5ca	-0.010304878
200	0xbd4afb11	-0.04955584
201	0x3d893687	0.066998534
202	0xbd14f907	-0.036370303
203	0xbda88589	-0.08228595
204	0x3d61e00c	0.05514531
205	0x3d1f2a02	0.03885842
206	0x3c1d9450	0.00961788
207	0x3d6fcb70	0.058543622
208	0xbd4d23ac	-0.050082847
209	0x3d06ce86	0.0329118
210	0xbd8e2f84	-0.06942657
211	0x3cc8e58a	0.024523515
212	0x3d38390c	0.04497628
213	0x3d7e44bb	0.062077265
214	0xbd497c9d	-0.049191106
215	0xbbbaaa32	-0.0056965584
216	0x3b950015	0.004547129
217	0xbda4cc63	-0.08046796
218	0x3bae7b82	0.005324782
219	0x3d9bfe84	0.076169044
220	0x3cfb4ce2	0.030676309
221	0xbc16d6b4	-0.009206463
222	0x3baadeb1	0.005214535
223	0x3c4b0b25	0.012392794
224	0xbd972fca	-0.07382162
225	0xbd139d3a	-0.036038615
226	0x3c071fa5	0.008247291
227	0xbaf3cac7	-0.0018599861
228	0xbdb21f9a	-0.08697434
229	0x3d432edc	0.04765211
230	0x3cdbdc73	0.026838517
231	0xbd90e59b	-0.07075044
232	0xbd236f80	-0.039901257
233	0xbdacbc09	-0.08434302
234	0xbd2be50e	-0.04196649
235	0xbd4ab425	-0.049488205
236	0x3bff337b	0.0077881194
237	0x3d99fc56	0.075188324
238	0x3d49caee	0.049265794
239	0xbd0e2170	-0.034699857
240	0x3c0715f3	0.008244979
241	0xbda2f9b6	-0.07957785
242	0x3db193e6	0.086707875
243	0x3d8e5ba3	0.06951072
244	0xbd7793ab	-0.06044356
245	0x3c892945	0.016743312
246	0xbd6a8498	-0.057255358
247	0xbd641a27	-0.055689003
248	0x3ccad4b0	0.02475962
249	0x3daea5eb	0.0852774
250	0xbce0b5ae	-0.027430382
251	0x3d34a131	0.044099037
252	0xbd49b341	-0.049243215
253	0x3db1a8dc	0.086747855
254	0x3d5de0dd	0.054169524
255	0x3b5f3ddb	0.0034063968

gnn.layer.weight f4 [1, 64]
0	0xbd5d0e6c	-0.053968832
1	0xbd610cdc	-0.054943904
2	0xbd30bd84	-0.043149486
3	0x3d575504	0.05257131
4	0x3d74d68c	0.05977492
5	0x3d778888	0.06043294
6	0xbc15cbb0	-0.009142801
7	0xbcfe2f68	-0.031028464
8	0x3d35c2bc	0.044375166
9	0x3dd69f32	0.10479583
10	0x3d108f74	0.035293058
11	0x3dbe0126	0.09277563
12	0x3cee9708	0.029124752
13	0x3d421a18	0.047388166
14	0x3da5dd1a	0.080988124
15	0xbdf85de2	-0.12127282
16	0xbdcc8e4e	-0.0998808
17	0xbdb7424e	-0.089481935
18	0x3a5a3200	0.00083234906
19	0x3d53bf14	0.0516959
20	0x3d2e15e0	0.04250133
21	0xbdac5d64	-0.0841625
22	0xbd009d7c	-0.03140019
23	0xbc2f5a10	-0.010702625
24	0xbdc7cb46	-0.09755568
25	0x3dadb822	0.08482386
26	0x3d96c3c8	0.07361561
27	0xbce8b6f8	-0.028407559
28	0xbd51832c	-0.051150486
29	0x3d3abd88	0.045590907
30	0xbdb56690	-0.08857453
31	0xbcf1c020	-0.029510558
32	0xbcfbacc8	-0.030722037
33	0x3db5d58a	0.0887862
34	0x3dd0cc3e	0.10195206
35	0x3c879ae8	0.016553357
36	0xbdea8bca	-0.11452444
37	0xbd8fed1e	-0.070276484
38	0xbc02d670	-0.007985696
39	0xbdf57f20	-0.11987138
40	0xbd7dc4dc	-0.061955318
41	0x3cf7ef18	0.030265376
42	0x39a71600	0.00031869113
43	0x3d9011ce	0.07034646
44	0xbb8bc3a0	-0.0042652637
45	0xbd76652c	-0.06015508
46	0x3dd434fe	0.1036167
47	0xbdbcb61e	-0.092144236
48	0xbd861caa	-0.06548436
49	0xbdc4fe9a	-0.09618874
50	0x3df526f2	0.11970319
51	0x3cad2f08	0.02114059
52	0x3c9e5e18	0.019331977
53	0x3d8e3460	0.069435835
54	0xbd9cc95a	-0.07655592
55	0xbdddcd8c	-0.108302206
56	0xbdc89540	-0.09794092
57	0xbcd098b0	-0.025463432
58	0x3dc0675e	0.09394716
59	0x3d303f5c	0.043029174
60	0x3d6cab10	0.057780325
61	0xbc861828	-0.01636894
62	0x3cfa2f18	0.030540034
63	0xbc677560	-0.0141271055
